Pytorch/app/src/main/assets/optimal.pt (torch, 7674 bytes, 2 tensors)

weight f4 [5, 3, 3, 3]
0	0xbbc756bf	-0.006083339
1	0x3de64736	0.11244051
2	0xbd982334	-0.074285895
3	0x3df7ad45	0.120935954
4	0x3dc9e1e8	0.09857541
5	0x3e0eb504	0.1393624
6	0x3d46493b	0.04840968
7	0x3d868316	0.065679714
8	0x3e05f82d	0.13082953
9	0x3ccef754	0.02526442
10	0xbdfa1c14	-0.12212387
11	0x3de96941	0.11397029
12	0xbd9f8d77	-0.07790654
13	0xbe06d37d	-0.13166614
14	0xbe261d74	-0.16222173
15	0xbdb76f4c	-0.08956775
16	0xbe102b54	-0.14079028
17	0xbde21888	-0.11039835
18	0xbd18be9a	-0.037291147
19	0xbdfa323c	-0.12216613
20	0x3c6a2293	0.01429047
21	0xbe01e979	-0.12686719
22	0xbcbc992a	-0.023022253
23	0xbe19c8fc	-0.15018076
24	0xbda7b51d	-0.081888415
25	0xbd8b95b3	-0.06815662
26	0xbdd7fd45	-0.10546354
27	0xbdcf4c29	-0.10121948
28	0x3db04978	0.08607763
29	0x3dc392a6	0.09549455
30	0x3e07057d	0.13185687
31	0xbe2a5821	-0.16635181
32	0xbe220143	-0.15820794
33	0xbd816ecc	-0.06319961
34	0x3e2d549a	0.16926804
35	0xbdd67b85	-0.10472778
36	0xbe07cd0e	-0.13261816
37	0xbe12bc85	-0.14329727
38	0xbe16221d	-0.1466145
39	0xbde6e321	-0.1127379
40	0xbd49157e	-0.049092762
41	0xbb7a56ae	-0.0038198638
42	0xbe114844	-0.14187723
43	0xbc06da14	-0.008230705
44	0xbe26b66a	-0.16280523
45	0xbd86d604	-0.06583789
46	0x3dbf71c7	0.09347873
47	0x3d7791e3	0.060441863
48	0xbd36c164	-0.044618025
49	0xbdb2353f	-0.08701562
50	0x3e3a3378	0.18183696
51	0x3d8ed6a3	0.069745325
52	0x3e131a17	0.14365421
53	0x3e00b5b3	0.12569313
54	0x3e0ed086	0.13946733
55	0xbdbde1dc	-0.09271595
56	0xbd7b0ce6	-0.061291598
57	0x3df1bb87	0.11803346
58	0xbe1112fd	-0.141674
59	0x3dc9e710	0.09858525
60	0xbdc34c2e	-0.095360145
61	0xbd498c56	-0.0492061
62	0xbd5c50e0	-0.053788066
63	0xbdf3dbdd	-0.1190717
64	0xbe2cf788	-0.168913
65	0x3e28c214	0.16480285
66	0x3cf119a9	0.029431181
67	0xbd8e84a0	-0.0695889
68	0xbe272afd	-0.16324992
69	0x3c19d81e	0.009389905
70	0xbe088611	-0.13332392
71	0xbd797e72	-0.060911603
72	0xbe097989	-0.13425268
73	0xbd215063	-0.039383303
74	0x3da04ad5	0.07826773
75	0xbd2a5c14	-0.04159172
76	0xbe0d1d8c	-0.13780802
77	0xbe2ab8e6	-0.16672096
78	0x3e435181	0.1907406
79	0x3e2fe915	0.17178757
80	0xbe3b006f	-0.18261884
81	0x3da6504f	0.081207864
82	0x3e3ae278	0.18250453
83	0x3d8017e8	0.0625456
84	0xbe0bdc12	-0.13658169
85	0x3e17e635	0.14833911
86	0x3d3bf69a	0.045889474
87	0xbe15fea6	-0.14647922
88	0xbe43610c	-0.19079989
89	0x3e21413c	0.15747541
90	0x3d653f39	0.055968497
91	0xbdcbd31b	-0.099523745
92	0xbd2ba6d4	-0.041907147
93	0xbd33abed	-0.043865133
94	0xbba5c26a	-0.0050585764
95	0xbd56e501	-0.05246449
96	0x3e0d409b	0.13794176
97	0x3b906f31	0.0044077863
98	0x3ce7bc84	0.028288133
99	0xbe278693	-0.1635993
100	0xbe005fb8	-0.12536514
101	0x3e2b8cbf	0.16752909
102	0xbdc94d26	-0.09829168
103	0xbe37709a	-0.17914048
104	0x3de218f0	0.11039913
105	0x3dc8e280	0.098088264
106	0x3d24b13e	0.040208094
107	0xbd96bf39	-0.073606916
108	0x3d85a69e	0.0652592
109	0x3c426160	0.011864036
110	0xbc7a04be	-0.01525992
111	0x3e44f2ce	0.19233248
112	0x3d8e6e53	0.069546364
113	0xbd9f3ecd	-0.0777565
114	0x3daed80d	0.08537302
115	0xbceec262	-0.029145423
116	0xbdf77e74	-0.12084666
117	0x3d511693	0.05104692
118	0x3e2e86aa	0.17043558
119	0xbdccc805	-0.09999088
120	0x3dd703d7	0.10498779
121	0xbe241df4	-0.16027051
122	0xbe3c38d7	-0.18381058
123	0x3dd0a12e	0.101869926
124	0xbd05c918	-0.03266248
125	0xbc9c5b05	-0.01908637
126	0x3d801d14	0.06255546
127	0x3ccea594	0.025225438
128	0x3ba373ca	0.0049881684
129	0xbdf06fe8	-0.117400944
130	0x3e3cfc67	0.18455659
131	0x3da9a5aa	0.08283551
132	0xbe1806d6	-0.14846358
133	0xbdd13d7c	-0.10216805
134	0x3dbc6818	0.09199542

bias f4 [5]
0	0x00000000	0.0
1	0x00000000	0.0
2	0x00000000	0.0
3	0x00000000	0.0
4	0x00000000	0.0
